models/combined_dataset_bertopic_model/ctfidf.safetensors (safetensors, 783644 bytes, 4 tensors)

data f8 [54516]
000000 98 a1 d0 fd e1 55 22 3f 2b 0f 4c 52 60 38 20 3f
       0.00013988860783454844 0.00012375045584899746
000010 db d5 6f 8c 61 c2 14 3f c9 4d 24 15 4b fe 25 3f
       7.919044865885938e-05 0.0001677958158060446
000020 bb d3 5a e6 1b fb 18 3f 2b 0f 4c 52 60 38 20 3f
       9.529454981811642e-05 0.00012375045584899746
000030 a1 f6 4a d8 0b 7f 3a 3f a9 f3 5e 1c 39 b4 1c 3f
       0.00040430106336573386 0.0001094970567398617
000040 4b 35 e9 e3 94 e4 33 3f a9 f3 5e 1c 39 b4 1c 3f
       0.000303541517415369 0.0001094970567398617
000050 a9 f3 5e 1c 39 b4 1c 3f a9 f3 5e 1c 39 b4 1c 3f
       0.0001094970567398617 0.0001094970567398617
000060 2b 0f 4c 52 60 38 20 3f 2b 0f 4c 52 60 38 20 3f
       0.00012375045584899746 0.00012375045584899746
000070 2b 0f 4c 52 60 38 20 3f 2b 0f 4c 52 60 38 20 3f
       0.00012375045584899746 0.00012375045584899746
000080 e0 39 91 13 4c 19 50 3f 2b 0f 4c 52 60 38 20 3f
       0.0009825938161785938 0.00012375045584899746
000090 2b 0f 4c 52 60 38 20 3f 2b 0f 4c 52 60 38 20 3f
       0.00012375045584899746 0.00012375045584899746
0000a0 81 26 7f bb 1c d7 31 3f 0f 47 8c da 1b 86 1a 3f
       0.0002722211024744695 0.00010118050580512301
0000b0 2b 0f 4c 52 60 38 20 3f a9 f3 5e 1c 39 b4 2c 3f
       0.00012375045584899746 0.0002189941134797234
0000c0 0f 47 8c da 1b 86 2a 3f bb d3 5a e6 1b fb 28 3f
       0.00020236101161024602 0.00019058909963623285
0000d0 2b 0f 4c 52 60 38 20 3f 2b 0f 4c 52 60 38 20 3f
       0.00012375045584899746 0.00012375045584899746
0000e0 2b 0f 4c 52 60 38 20 3f 2b 0f 4c 52 60 38 20 3f
       0.00012375045584899746 0.00012375045584899746
0000f0 a9 f3 5e 1c 39 b4 1c 3f a9 f3 5e 1c 39 b4 1c 3f
       0.0001094970567398617 0.0001094970567398617
000100 2b 0f 4c 52 60 38 20 3f 2b 0f 4c 52 60 38 20 3f
       0.00012375045584899746 0.00012375045584899746
000110 2b 0f 4c 52 60 38 20 3f 2b 0f 4c 52 60 38 20 3f
       0.00012375045584899746 0.00012375045584899746
000120 2b 0f 4c 52 60 38 20 3f a9 f3 5e 1c 39 b4 1c 3f
       0.00012375045584899746 0.0001094970567398617
000130 2b 0f 4c 52 60 38 20 3f 2b 0f 4c 52 60 38 20 3f
       0.00012375045584899746 0.00012375045584899746
000140 2b 0f 4c 52 60 38 20 3f 2b 0f 4c 52 60 38 20 3f
       0.00012375045584899746 0.00012375045584899746
000150 2b 0f 4c 52 60 38 20 3f 39 6c 51 7d ae 4d 4d 3f
       0.00012375045584899746 0.0008942701339366205
000160 bb d3 5a e6 1b fb 18 3f 2b 0f 4c 52 60 38 20 3f
       9.529454981811642e-05 0.00012375045584899746
000170 2b 0f 4c 52 60 38 20 3f ad db 2f 60 8a e8 24 3f
       0.00012375045584899746 0.0001595181384741162
000180 2b 0f 4c 52 60 38 20 3f 2b 0f 4c 52 60 38 20 3f
       0.00012375045584899746 0.00012375045584899746
000190 08 c4 f4 03 c0 48 45 3f fe eb 07 2e 9b d7 28 3f
       0.0006495416236359528 0.00018953103337068783
0001a0 4a d8 f6 d7 71 fc 39 3f 2b 0f 4c 52 60 38 20 3f
       0.0003965166033269614 0.00012375045584899746
0001b0 c9 4d 24 15 4b fe 35 3f 2b 0f 4c 52 60 38 20 3f
       0.0003355916316120892 0.00012375045584899746
0001c0 2b 0f 4c 52 60 38 20 3f a9 f3 5e 1c 39 b4 1c 3f
       0.00012375045584899746 0.0001094970567398617
0001d0 08 c4 f4 03 c0 48 35 3f 0f 47 8c da 1b 86 1a 3f
       0.0003247708118179764 0.00010118050580512301
0001e0 2b 0f 4c 52 60 38 20 3f 89 38 41 86 a5 fb 50 3f
       0.00012375045584899746 0.0010365597199953078
0001f0 a0 8e 1e 3a 2a 95 57 3f a9 f3 5e 1c 39 b4 1c 3f
       0.0014393722890212804 0.0001094970567398617
000200 42 b2 8c 57 02 a9 44 3f a9 f3 5e 1c 39 b4 1c 3f
       0.0006304990230084422 0.0001094970567398617
000210 ad 88 a9 a4 7b c9 37 3f 2b 0f 4c 52 60 38 20 3f
       0.0003629614699659594 0.00012375045584899746
000220 5d 9b 23 a0 78 67 37 3f 2b 0f 4c 52 60 38 20 3f
       0.00035711951217225706 0.00012375045584899746
000230 a9 f3 5e 1c 39 b4 2c 3f 2b 0f 4c 52 60 38 20 3f
       0.0002189941134797234 0.00012375045584899746
000240 a9 f3 5e 1c 39 b4 2c 3f d2 de 6f ed 42 d3 39 3f
       0.0002189941134797234 0.00039406188938027637
000250 2b 0f 4c 52 60 38 20 3f 65 8d 16 be 25 0b 40 3f
       0.00012375045584899746 0.0004896101274209195
000260 2b 0f 4c 52 60 38 20 3f 2b 0f 4c 52 60 38 20 3f
       0.00012375045584899746 0.00012375045584899746
000270 8b e7 1e e0 49 1c 31 3f 2b 0f 4c 52 60 38 20 3f
       0.0002610855445898056 0.00012375045584899746
000280 8a af 4d db 49 80 38 3f 4b 35 e9 e3 94 e4 33 3f
       0.00037385752812357147 0.000303541517415369
000290 a9 f3 5e 1c 39 b4 1c 3f a9 f3 5e 1c 39 b4 1c 3f
       0.0001094970567398617 0.0001094970567398617
0002a0 0b 26 ef 05 20 ed 3f 3f 2b 0f 4c 52 60 38 20 3f
       0.00048715621772696453 0.00012375045584899746
0002b0 2b 0f 4c 52 60 38 20 3f 2b 0f 4c 52 60 38 20 3f
       0.00012375045584899746 0.00012375045584899746
0002c0 6d 92 80 f7 33 09 59 3f 2b 0f 4c 52 60 38 20 3f
       0.0015280730713211025 0.00012375045584899746
0002d0 a9 f3 5e 1c 39 b4 2c 3f ad 88 a9 a4 7b c9 17 3f
       0.0002189941134797234 9.074036749148985e-05
0002e0 2b 0f 4c 52 60 38 20 3f 2b 0f 4c 52 60 38 20 3f
       0.00012375045584899746 0.00012375045584899746
0002f0 2b 0f 4c 52 60 38 20 3f 2b 0f 4c 52 60 38 20 3f
       0.00012375045584899746 0.00012375045584899746
000300 0f 47 8c da 1b 86 1a 3f a9 f3 5e 1c 39 b4 1c 3f
       0.00010118050580512301 0.0001094970567398617
000310 2b 0f 4c 52 60 38 20 3f 2b 0f 4c 52 60 38 20 3f
       0.00012375045584899746 0.00012375045584899746
000320 bb d3 5a e6 1b fb 18 3f 16 a8 3e eb 53 f1 3c 3f
       9.529454981811642e-05 0.00044163035203814824
000330 2b 0f 4c 52 60 38 20 3f 62 0b 53 83 83 fd 2e 3f
       0.00012375045584899746 0.0002364371336281658
000340 cb a5 1d cf a9 35 3b 3f 0b 26 ef 05 20 ed 2f 3f
       0.000415185887610106 0.00024357810886348227
000350 ba 34 29 80 62 d0 26 3f 36 39 6c f4 9e 07 4c 3f
       0.00017405702972653707 0.0008554006716126386
000360 2b 0f 4c 52 60 38 20 3f 0f 47 8c da 1b 86 2a 3f
       0.00012375045584899746 0.00020236101161024602
000370 2b 0f 4c 52 60 38 20 3f 0f 47 8c da 1b 86 1a 3f
       0.00012375045584899746 0.00010118050580512301
000380 2b 0f 4c 52 60 38 20 3f 2b 0f 4c 52 60 38 20 3f
       0.00012375045584899746 0.00012375045584899746
000390 2b 0f 4c 52 60 38 20 3f a9 f3 5e 1c 39 b4 1c 3f
       0.00012375045584899746 0.0001094970567398617
0003a0 2e a7 39 b5 aa 8a 39 3f 92 34 3e 29 aa f9 11 3f
       0.00038973491357429085 6.85701473328185e-05
0003b0 32 3f a8 51 b4 fc 3f 3f ad 88 a9 a4 7b c9 27 3f
       0.0004880848152035599 0.0001814807349829797
0003c0 da 2b 5c 54 69 75 3a 3f 1f 1a d1 78 1c 07 31 3f
       0.00040372678300631753 0.0002598232757161939
0003d0 56 3a db 4f b8 7e 30 3f e3 20 45 ff 0e d8 43 3f
       0.00025169372370906684 0.0006055901745094762
0003e0 dc 05 cb 0f f1 af 5a 3f 4b 35 e9 e3 94 e4 33 3f
       0.0016288618200380666 0.000303541517415369
0003f0 cb 1e c4 ec 54 bc 32 3f 2b 0f 4c 52 60 38 20 3f
       0.0002858836494543492 0.00012375045584899746
000400 0e d4 48 9a 44 b6 50 3f a9 f3 5e 1c 39 b4 2c 3f
       0.0010200185726152475 0.0002189941134797234
000410 4b 35 e9 e3 94 e4 33 3f 38 84 7d d0 2a b9 36 3f
       0.000303541517415369 0.0003467301871663028
000420 2b 0f 4c 52 60 38 20 3f 98 a1 d0 fd e1 55 32 3f
       0.00012375045584899746 0.0002797772156690969
000430 cb 1e c4 ec 54 bc 32 3f a4 d3 2b 6a 77 05 4f 3f
       0.0002858836494543492 0.0009466965751402279
000440 2b 0f 4c 52 60 38 20 3f bb d3 5a e6 1b fb 18 3f
       0.00012375045584899746 9.529454981811642e-05
000450 6f 3e 7a 89 0d 48 3e 3f 17 49 e9 4c 2d b9 22 3f
       0.0004620583581322673 0.00014284780486890282
000460 0b 26 ef 05 20 ed 2f 3f c2 de 71 01 0d e0 43 3f
       0.00024357810886348227 0.0006065429214591955
000470 c9 4d 24 15 4b fe 25 3f a9 f3 5e 1c 39 b4 1c 3f
       0.0001677958158060446 0.0001094970567398617
000480 0f 47 8c da 1b 86 2a 3f a9 f3 5e 1c 39 b4 1c 3f
       0.00020236101161024602 0.0001094970567398617
000490 58 d1 7f a4 41 0f 55 3f 92 34 3e 29 aa f9 41 3f
       0.0012853756943487973 0.000548561178662548
0004a0 08 c4 f4 03 c0 48 35 3f a2 ed 5d f3 c3 15 3c 3f
       0.0003247708118179764 0.00042854341460670843
0004b0 2b 0f 4c 52 60 38 20 3f 2b 0f 4c 52 60 38 20 3f
       0.00012375045584899746 0.00012375045584899746
0004c0 2b 0f 4c 52 60 38 20 3f 0f 47 8c da 1b 86 1a 3f
       0.00012375045584899746 0.00010118050580512301
0004d0 cb 1e c4 ec 54 bc 32 3f 2b 0f 4c 52 60 38 20 3f
       0.0002858836494543492 0.00012375045584899746
0004e0 bb d3 5a e6 1b fb 28 3f 2c 7e 41 e6 1d 75 45 3f
       0.00019058909963623285 0.0006548305505126909
0004f0 95 7c f3 1a ba d6 4e 3f 3b 61 6d da dd 7d 3b 3f
       0.0009411247937371076 0.00041948953951511145
000500 2b 0f 4c 52 60 38 20 3f 2b 0f 4c 52 60 38 20 3f
       0.00012375045584899746 0.00012375045584899746
000510 2b 0f 4c 52 60 38 20 3f a9 f3 5e 1c 39 b4 1c 3f
       0.00012375045584899746 0.0001094970567398617
000520 bb d3 5a e6 1b fb 18 3f 4b 35 e9 e3 94 e4 33 3f
       9.529454981811642e-05 0.000303541517415369
000530 2b 0f 4c 52 60 38 20 3f 2b 0f 4c 52 60 38 20 3f
       0.00012375045584899746 0.00012375045584899746
000540 ba 34 29 80 62 d0 26 3f 2b 0f 4c 52 60 38 20 3f
       0.00017405702972653707 0.00012375045584899746
000550 a9 f3 5e 1c 39 b4 1c 3f a9 f3 5e 1c 39 b4 1c 3f
       0.0001094970567398617 0.0001094970567398617
000560 e5 ce 7b 39 0e 69 4c 3f 0b 26 ef 05 20 ed 3f 3f
       0.0008670157867229604 0.00048715621772696453
000570 77 77 15 e9 aa 29 66 3f 0f 47 8c da 1b 86 1a 3f
       0.0027054155440699407 0.00010118050580512301
000580 2b 0f 4c 52 60 38 20 3f 2b 0f 4c 52 60 38 20 3f
       0.00012375045584899746 0.00012375045584899746
000590 ad 88 a9 a4 7b c9 27 3f 2b 0f 4c 52 60 38 20 3f
       0.0001814807349829797 0.00012375045584899746
0005a0 c3 eb 03 5f d1 3a 49 3f ff db 2c c8 e9 74 3f 3f
       0.000769951087959846 0.0004799910313297295
0005b0 14 2e 83 19 9a 26 41 3f c9 4d 24 15 4b fe 35 3f
       0.0005234005393730001 0.0003355916316120892
0005c0 2b 0f 4c 52 60 38 20 3f d4 d9 78 4c 5c bb 4e 3f
       0.00012375045584899746 0.0009378624608363203
0005d0 ba 34 29 80 62 d0 36 3f 0f 47 8c da 1b 86 2a 3f
       0.00034811405945307415 0.00020236101161024602
0005e0 8b 21 6c fe c0 3c 41 3f bb d3 5a e6 1b fb 38 3f
       0.0005260412552568356 0.0003811781992724657
0005f0 a9 f3 5e 1c 39 b4 1c 3f bb d3 5a e6 1b fb 28 3f
       0.0001094970567398617 0.00019058909963623285
000600 0f 47 8c da 1b 86 1a 3f 2b 0f 4c 52 60 38 20 3f
       0.00010118050580512301 0.00012375045584899746
000610 3c 59 71 af d4 99 33 3f 2b 0f 4c 52 60 38 20 3f
       0.0002990860224988572 0.00012375045584899746
000620 ad 88 a9 a4 7b c9 17 3f 2b 0f 4c 52 60 38 20 3f
       9.074036749148985e-05 0.00012375045584899746
000630 a9 f3 5e 1c 39 b4 1c 3f 2b 0f 4c 52 60 38 20 3f
       0.0001094970567398617 0.00012375045584899746
000640 a9 f3 5e 1c 39 b4 2c 3f 2b 0f 4c 52 60 38 20 3f
       0.0002189941134797234 0.00012375045584899746
000650 2b 0f 4c 52 60 38 20 3f 0f 47 8c da 1b 86 1a 3f
       0.00012375045584899746 0.00010118050580512301
000660 bb d3 5a e6 1b fb 18 3f bb d3 5a e6 1b fb 28 3f
       9.529454981811642e-05 0.00019058909963623285
000670 1f 1a d1 78 1c 07 41 3f a9 f3 5e 1c 39 b4 1c 3f
       0.0005196465514323878 0.0001094970567398617
000680 2b 0f 4c 52 60 38 20 3f 2b 0f 4c 52 60 38 20 3f
       0.00012375045584899746 0.00012375045584899746
000690 2b 0f 4c 52 60 38 20 3f d8 86 19 71 28 d2 43 3f
       0.00012375045584899746 0.0006048867673593373
0006a0 2b 0f 4c 52 60 38 20 3f 4b 35 e9 e3 94 e4 33 3f
       0.00012375045584899746 0.000303541517415369
0006b0 2b 0f 4c 52 60 38 20 3f a9 f3 5e 1c 39 b4 1c 3f
       0.00012375045584899746 0.0001094970567398617
0006c0 a9 f3 5e 1c 39 b4 2c 3f bb d3 5a e6 1b fb 28 3f
       0.0002189941134797234 0.00019058909963623285
0006d0 2b 0f 4c 52 60 38 20 3f 2b 0f 4c 52 60 38 20 3f
       0.00012375045584899746 0.00012375045584899746
0006e0 bb d3 5a e6 1b fb 28 3f d8 66 90 a3 14 21 39 3f
       0.00019058909963623285 0.00038344148521361537
0006f0 a9 f3 5e 1c 39 b4 1c 3f 5d 9b 23 a0 78 67 37 3f
       0.0001094970567398617 0.00035711951217225706
000700 a9 f3 5e 1c 39 b4 1c 3f 2b 0f 4c 52 60 38 20 3f
       0.0001094970567398617 0.00012375045584899746
000710 bb d3 5a e6 1b fb 18 3f 63 f2 b8 fc d2 80 2b 3f
       9.529454981811642e-05 0.00020983291175182263
000720 2b 0f 4c 52 60 38 20 3f 42 b2 8c 57 02 a9 24 3f
       0.00012375045584899746 0.00015762475575211056
000730 2b 0f 4c 52 60 38 20 3f 0f 47 8c da 1b 86 1a 3f
       0.00012375045584899746 0.00010118050580512301
000740 2b 0f 4c 52 60 38 20 3f 0f 47 8c da 1b 86 1a 3f
       0.00012375045584899746 0.00010118050580512301
000750 2b 0f 4c 52 60 38 20 3f 0f 47 8c da 1b 86 2a 3f
       0.00012375045584899746 0.00020236101161024602
000760 2b 0f 4c 52 60 38 20 3f 18 c2 5a 55 3f 0a 57 3f
       0.00012375045584899746 0.0014062517633811663
000770 c9 4d 24 15 4b fe 35 3f 9c 5b 5c 5a 5c 10 4c 3f
       0.0003355916316120892 0.0008564425413365331
000780 0f 47 8c da 1b 86 2a 3f a9 f3 5e 1c 39 b4 2c 3f
       0.00020236101161024602 0.0002189941134797234
000790 0f 47 8c da 1b 86 1a 3f 2b 0f 4c 52 60 38 20 3f
       0.00010118050580512301 0.00012375045584899746
0007a0 2b 0f 4c 52 60 38 20 3f cb 1e c4 ec 54 bc 32 3f
       0.00012375045584899746 0.0002858836494543492
0007b0 a9 f3 5e 1c 39 b4 1c 3f 2b 0f 4c 52 60 38 20 3f
       0.0001094970567398617 0.00012375045584899746
0007c0 4a d8 f6 d7 71 fc 39 3f cb 1e c4 ec 54 bc 32 3f
       0.0003965166033269614 0.0002858836494543492
0007d0 62 e5 b3 3f e1 9c 32 3f f6 7e 8c ff d2 c5 4f 3f
       0.00028400897254206834 0.0009696274056274201
0007e0 a9 f3 5e 1c 39 b4 1c 3f 2b 0f 4c 52 60 38 20 3f
       0.0001094970567398617 0.00012375045584899746
0007f0 92 34 3e 29 aa f9 11 3f 1f 1a d1 78 1c 07 41 3f
       6.85701473328185e-05 0.0005196465514323878

diag f8 [15957]
000000 2e 99 b2 ef 5d fc 17 40 48 5b 4d c9 91 de fc 3f
       5.996452088619021 1.804338251434915
000010 2e 99 b2 ef 5d fc 17 40 a3 bf b9 f3 ec 42 10 40
       5.996452088619021 4.065357025348848
000020 2e 99 b2 ef 5d fc 17 40 bf 86 1b 9f 0b fd f0 3f
       5.996452088619021 1.061778661264199
000030 90 44 b7 85 f4 6d 00 40 98 14 02 da 20 39 15 40
       2.0536890455774213 5.305789381386738
000040 2e 99 b2 ef 5d fc 17 40 2e 99 b2 ef 5d fc 17 40
       5.996452088619021 5.996452088619021
000050 98 14 02 da 20 39 15 40 ea 07 2f 48 78 9c 13 40
       5.305789381386738 4.9028025892930405
000060 f9 2d 00 33 90 a6 07 40 98 14 02 da 20 39 15 40
       2.956329725687962 5.305789381386738
000070 2e 99 b2 ef 5d fc 17 40 96 79 57 f3 70 96 11 40
       5.996452088619021 4.396915247167632
000080 2e 99 b2 ef 5d fc 17 40 2e 99 b2 ef 5d fc 17 40
       5.996452088619021 5.996452088619021
000090 2e 99 b2 ef 5d fc 17 40 2e 99 b2 ef 5d fc 17 40
       5.996452088619021 5.996452088619021
0000a0 2e 99 b2 ef 5d fc 17 40 98 14 02 da 20 39 15 40
       5.996452088619021 5.305789381386738
0000b0 ea 07 2f 48 78 9c 13 40 2e 99 b2 ef 5d fc 17 40
       4.9028025892930405 5.996452088619021
0000c0 2e 99 b2 ef 5d fc 17 40 a0 e1 d3 8d ee 4e 0c 40
       5.996452088619021 3.5385409431730324
0000d0 ea 07 2f 48 78 9c 13 40 84 77 52 54 43 de 10 40
       4.9028025892930405 4.21705371621454
0000e0 50 eb 49 ba a8 ab 00 40 96 79 57 f3 70 96 11 40
       2.083817916279635 4.396915247167632
0000f0 2e 99 b2 ef 5d fc 17 40 2e 99 b2 ef 5d fc 17 40
       5.996452088619021 5.996452088619021
000100 98 14 02 da 20 39 15 40 2e 99 b2 ef 5d fc 17 40
       5.305789381386738 5.996452088619021
000110 2e 99 b2 ef 5d fc 17 40 dc d7 e9 38 6a 78 12 40
       5.996452088619021 4.617592705986649
000120 2e 99 b2 ef 5d fc 17 40 2e 99 b2 ef 5d fc 17 40
       5.996452088619021 5.996452088619021
000130 84 77 52 54 43 de 10 40 2e 99 b2 ef 5d fc 17 40
       4.21705371621454 5.996452088619021
000140 4e d4 f1 9f 7c bf fd 3f 22 a3 d9 71 64 79 0f 40
       1.8592497108304715 3.934273614362966
000150 a3 bf b9 f3 ec 42 10 40 2e 99 b2 ef 5d fc 17 40
       4.065357025348848 5.996452088619021
000160 ea 07 2f 48 78 9c 13 40 96 79 57 f3 70 96 11 40
       4.9028025892930405 4.396915247167632
000170 ea 07 2f 48 78 9c 13 40 2e 99 b2 ef 5d fc 17 40
       4.9028025892930405 5.996452088619021
000180 2e 99 b2 ef 5d fc 17 40 2e 99 b2 ef 5d fc 17 40
       5.996452088619021 5.996452088619021
000190 2e 99 b2 ef 5d fc 17 40 84 77 52 54 43 de 10 40
       5.996452088619021 4.21705371621454
0001a0 2e 99 b2 ef 5d fc 17 40 af 0f 04 f2 af f2 ff 3f
       5.996452088619021 1.9967498258347225
0001b0 2e 99 b2 ef 5d fc 17 40 ea 07 2f 48 78 9c 13 40
       5.996452088619021 4.9028025892930405
0001c0 2e 99 b2 ef 5d fc 17 40 2e 99 b2 ef 5d fc 17 40
       5.996452088619021 5.996452088619021
0001d0 2e 99 b2 ef 5d fc 17 40 2e 99 b2 ef 5d fc 17 40
       5.996452088619021 5.996452088619021
0001e0 2e 99 b2 ef 5d fc 17 40 2e 99 b2 ef 5d fc 17 40
       5.996452088619021 5.996452088619021
0001f0 84 77 52 54 43 de 10 40 87 41 7a 41 47 93 03 40
       4.21705371621454 2.4469132533487854
000200 84 77 52 54 43 de 10 40 2e 99 b2 ef 5d fc 17 40
       4.21705371621454 5.996452088619021
000210 98 14 02 da 20 39 15 40 2e 99 b2 ef 5d fc 17 40
       5.305789381386738 5.996452088619021
000220 2e 99 b2 ef 5d fc 17 40 98 14 02 da 20 39 15 40
       5.996452088619021 5.305789381386738
000230 2e 99 b2 ef 5d fc 17 40 2e 99 b2 ef 5d fc 17 40
       5.996452088619021 5.996452088619021
000240 2e 99 b2 ef 5d fc 17 40 ea 07 2f 48 78 9c 13 40
       5.996452088619021 4.9028025892930405
000250 96 79 57 f3 70 96 11 40 17 85 6b a7 3f 36 fc 3f
       4.396915247167632 1.7632442989200336
000260 ff fa 70 49 82 d5 05 40 22 a3 d9 71 64 79 0f 40
       2.729252408752813 3.934273614362966
000270 2e 99 b2 ef 5d fc 17 40 2e 99 b2 ef 5d fc 17 40
       5.996452088619021 5.996452088619021
000280 ea 07 2f 48 78 9c 13 40 2e 99 b2 ef 5d fc 17 40
       4.9028025892930405 5.996452088619021
000290 2e 99 b2 ef 5d fc 17 40 2e 99 b2 ef 5d fc 17 40
       5.996452088619021 5.996452088619021
0002a0 2e 99 b2 ef 5d fc 17 40 2e 99 b2 ef 5d fc 17 40
       5.996452088619021 5.996452088619021
0002b0 bb 5d 8a b6 7f 15 0a 40 f9 2d 00 33 90 a6 07 40
       3.2604974995590204 2.956329725687962
0002c0 dc d7 e9 38 6a 78 12 40 2e 99 b2 ef 5d fc 17 40
       4.617592705986649 5.996452088619021
0002d0 2e 99 b2 ef 5d fc 17 40 2e 99 b2 ef 5d fc 17 40
       5.996452088619021 5.996452088619021
0002e0 2e 99 b2 ef 5d fc 17 40 2e 99 b2 ef 5d fc 17 40
       5.996452088619021 5.996452088619021
0002f0 2e 99 b2 ef 5d fc 17 40 ea 07 2f 48 78 9c 13 40
       5.996452088619021 4.9028025892930405
000300 2e 99 b2 ef 5d fc 17 40 2e 99 b2 ef 5d fc 17 40
       5.996452088619021 5.996452088619021
000310 98 14 02 da 20 39 15 40 2e 99 b2 ef 5d fc 17 40
       5.305789381386738 5.996452088619021
000320 ff fa 70 49 82 d5 05 40 96 79 57 f3 70 96 11 40
       2.729252408752813 4.396915247167632
000330 2e 99 b2 ef 5d fc 17 40 ea 07 2f 48 78 9c 13 40
       5.996452088619021 4.9028025892930405
000340 2e 99 b2 ef 5d fc 17 40 2e 99 b2 ef 5d fc 17 40
       5.996452088619021 5.996452088619021
000350 98 14 02 da 20 39 15 40 98 14 02 da 20 39 15 40
       5.305789381386738 5.305789381386738
000360 1a 47 ac 09 a8 f8 03 40 98 14 02 da 20 39 15 40
       2.49641425663948 5.305789381386738
000370 2e 99 b2 ef 5d fc 17 40 2e 99 b2 ef 5d fc 17 40
       5.996452088619021 5.996452088619021
000380 2e 99 b2 ef 5d fc 17 40 fe 1b 61 ca ce 0a fa 3f
       5.996452088619021 1.627638617080947
000390 2e 99 b2 ef 5d fc 17 40 2e 99 b2 ef 5d fc 17 40
       5.996452088619021 5.996452088619021
0003a0 2e 99 b2 ef 5d fc 17 40 2e 99 b2 ef 5d fc 17 40
       5.996452088619021 5.996452088619021
0003b0 2e 99 b2 ef 5d fc 17 40 2e 99 b2 ef 5d fc 17 40
       5.996452088619021 5.996452088619021
0003c0 2e 99 b2 ef 5d fc 17 40 2e 99 b2 ef 5d fc 17 40
       5.996452088619021 5.996452088619021
0003d0 2e 99 b2 ef 5d fc 17 40 2e 99 b2 ef 5d fc 17 40
       5.996452088619021 5.996452088619021
0003e0 2e 99 b2 ef 5d fc 17 40 2e 99 b2 ef 5d fc 17 40
       5.996452088619021 5.996452088619021
0003f0 2e 99 b2 ef 5d fc 17 40 ea 07 2f 48 78 9c 13 40
       5.996452088619021 4.9028025892930405
000400 dc d7 e9 38 6a 78 12 40 2e 99 b2 ef 5d fc 17 40
       4.617592705986649 5.996452088619021
000410 98 14 02 da 20 39 15 40 2e 99 b2 ef 5d fc 17 40
       5.305789381386738 5.996452088619021
000420 2e 99 b2 ef 5d fc 17 40 a0 e1 d3 8d ee 4e 0c 40
       5.996452088619021 3.5385409431730324
000430 2e 99 b2 ef 5d fc 17 40 aa 2d 4c 77 62 ba 0d 40
       5.996452088619021 3.716008121502189
000440 2e 99 b2 ef 5d fc 17 40 2e 99 b2 ef 5d fc 17 40
       5.996452088619021 5.996452088619021
000450 ea 07 2f 48 78 9c 13 40 2e 99 b2 ef 5d fc 17 40
       4.9028025892930405 5.996452088619021
000460 98 14 02 da 20 39 15 40 2e 99 b2 ef 5d fc 17 40
       5.305789381386738 5.996452088619021
000470 2e 99 b2 ef 5d fc 17 40 2e 99 b2 ef 5d fc 17 40
       5.996452088619021 5.996452088619021
000480 2e 99 b2 ef 5d fc 17 40 6f d6 20 a1 7f 36 fd 3f
       5.996452088619021 1.825805310637772
000490 f9 2d 00 33 90 a6 07 40 98 14 02 da 20 39 15 40
       2.956329725687962 5.305789381386738
0004a0 98 14 02 da 20 39 15 40 98 14 02 da 20 39 15 40
       5.305789381386738 5.305789381386738
0004b0 2e 99 b2 ef 5d fc 17 40 2e 99 b2 ef 5d fc 17 40
       5.996452088619021 5.996452088619021
0004c0 2e 99 b2 ef 5d fc 17 40 59 fe 96 86 2c 8d 0e 40
       5.996452088619021 3.8189325823621343
0004d0 2e 99 b2 ef 5d fc 17 40 2e 99 b2 ef 5d fc 17 40
       5.996452088619021 5.996452088619021
0004e0 2e 99 b2 ef 5d fc 17 40 2e 99 b2 ef 5d fc 17 40
       5.996452088619021 5.996452088619021
0004f0 ea 07 2f 48 78 9c 13 40 84 77 52 54 43 de 10 40
       4.9028025892930405 4.21705371621454
000500 21 21 6a 32 0b d7 04 40 b0 22 93 34 71 74 01 40
       2.605001825202763 2.1818565471079054
000510 5c 93 ff a5 83 09 02 40 40 e2 20 cf d8 eb 00 40
       2.2546456307049265 2.1151596242819153
000520 9a 21 a7 86 d0 4e fa 3f 09 df 22 59 ff 24 f4 3f
       1.6442418346287924 1.2590325815089634
000530 0c a2 87 01 ad 62 f3 3f 3f 99 02 6a fc 7d f7 3f
       1.2115907726057484 1.4682582989713209
000540 09 df 22 59 ff 24 f4 3f 7a b1 f5 1e 4a 50 ee 3f
       1.2590325815089634 0.9473009686167153
000550 7a f9 47 bb 3e 9e 09 40 96 79 57 f3 70 96 11 40
       3.20226808846854 4.396915247167632
000560 98 14 02 da 20 39 15 40 ea 07 2f 48 78 9c 13 40
       5.305789381386738 4.9028025892930405
000570 98 14 02 da 20 39 15 40 2e 99 b2 ef 5d fc 17 40
       5.305789381386738 5.996452088619021
000580 dc d7 e9 38 6a 78 12 40 2e 99 b2 ef 5d fc 17 40
       4.617592705986649 5.996452088619021
000590 98 14 02 da 20 39 15 40 bb 5d 8a b6 7f 15 0a 40
       5.305789381386738 3.2604974995590204
0005a0 fb 52 9f 66 0d 60 08 40 2e 99 b2 ef 5d fc 17 40
       3.0469005601283903 5.996452088619021
0005b0 2e 99 b2 ef 5d fc 17 40 2e 99 b2 ef 5d fc 17 40
       5.996452088619021 5.996452088619021
0005c0 84 77 52 54 43 de 10 40 a3 bf b9 f3 ec 42 10 40
       4.21705371621454 4.065357025348848
0005d0 b4 df 55 3d 06 fe 06 40 2e 99 b2 ef 5d fc 17 40
       2.874035338576471 5.996452088619021
0005e0 98 14 02 da 20 39 15 40 98 14 02 da 20 39 15 40
       5.305789381386738 5.305789381386738
0005f0 2e 99 b2 ef 5d fc 17 40 2e 99 b2 ef 5d fc 17 40
       5.996452088619021 5.996452088619021
000600 ea 07 2f 48 78 9c 13 40 f5 d3 e4 ff 1f 1d 0b 40
       4.9028025892930405 3.3892211906154395
000610 22 a3 d9 71 64 79 0f 40 2e 99 b2 ef 5d fc 17 40
       3.934273614362966 5.996452088619021
000620 2e 99 b2 ef 5d fc 17 40 2e 99 b2 ef 5d fc 17 40
       5.996452088619021 5.996452088619021
000630 98 14 02 da 20 39 15 40 98 14 02 da 20 39 15 40
       5.305789381386738 5.305789381386738
000640 f9 2d 00 33 90 a6 07 40 2e 99 b2 ef 5d fc 17 40
       2.956329725687962 5.996452088619021
000650 2e 99 b2 ef 5d fc 17 40 2e 99 b2 ef 5d fc 17 40
       5.996452088619021 5.996452088619021
000660 ea 07 2f 48 78 9c 13 40 2e 99 b2 ef 5d fc 17 40
       4.9028025892930405 5.996452088619021
000670 98 14 02 da 20 39 15 40 2a 66 e3 ef c3 e5 fe 3f
       5.305789381386738 1.9310950632701727
000680 a0 e1 d3 8d ee 4e 0c 40 ea 07 2f 48 78 9c 13 40
       3.5385409431730324 4.9028025892930405
000690 2e 99 b2 ef 5d fc 17 40 2e 99 b2 ef 5d fc 17 40
       5.996452088619021 5.996452088619021
0006a0 9d 0c 9d b0 c1 94 0a 40 a0 e1 d3 8d ee 4e 0c 40
       3.322635059159053 3.5385409431730324
0006b0 2e 99 b2 ef 5d fc 17 40 2e 99 b2 ef 5d fc 17 40
       5.996452088619021 5.996452088619021
0006c0 98 14 02 da 20 39 15 40 a3 bf b9 f3 ec 42 10 40
       5.305789381386738 4.065357025348848
0006d0 2e 99 b2 ef 5d fc 17 40 30 b6 68 0a 14 2e 09 40
       5.996452088619021 3.147499162025973
0006e0 98 14 02 da 20 39 15 40 98 14 02 da 20 39 15 40
       5.305789381386738 5.305789381386738
0006f0 2e 99 b2 ef 5d fc 17 40 ea 07 2f 48 78 9c 13 40
       5.996452088619021 4.9028025892930405
000700 f5 d3 e4 ff 1f 1d 0b 40 2e 99 b2 ef 5d fc 17 40
       3.3892211906154395 5.996452088619021
000710 98 14 02 da 20 39 15 40 2e 99 b2 ef 5d fc 17 40
       5.305789381386738 5.996452088619021
000720 2e 99 b2 ef 5d fc 17 40 2e 99 b2 ef 5d fc 17 40
       5.996452088619021 5.996452088619021
000730 ea 07 2f 48 78 9c 13 40 bb 5d 8a b6 7f 15 0a 40
       4.9028025892930405 3.2604974995590204
000740 2e 99 b2 ef 5d fc 17 40 2e 99 b2 ef 5d fc 17 40
       5.996452088619021 5.996452088619021
000750 96 79 57 f3 70 96 11 40 ea 07 2f 48 78 9c 13 40
       4.396915247167632 4.9028025892930405
000760 2e 99 b2 ef 5d fc 17 40 98 14 02 da 20 39 15 40
       5.996452088619021 5.305789381386738
000770 2e 99 b2 ef 5d fc 17 40 2e 99 b2 ef 5d fc 17 40
       5.996452088619021 5.996452088619021
000780 aa 2d 4c 77 62 ba 0d 40 ea 07 2f 48 78 9c 13 40
       3.716008121502189 4.9028025892930405
000790 2e 99 b2 ef 5d fc 17 40 2e 99 b2 ef 5d fc 17 40
       5.996452088619021 5.996452088619021
0007a0 ea 07 2f 48 78 9c 13 40 e3 d8 17 2f 33 51 01 40
       4.9028025892930405 2.1646484069016068
0007b0 25 b9 0b 0d f5 af 0b 40 2e 99 b2 ef 5d fc 17 40
       3.4609166163637775 5.996452088619021
0007c0 2e 99 b2 ef 5d fc 17 40 96 79 57 f3 70 96 11 40
       5.996452088619021 4.396915247167632
0007d0 2e 99 b2 ef 5d fc 17 40 bb 5d 8a b6 7f 15 0a 40
       5.996452088619021 3.2604974995590204
0007e0 2e 99 b2 ef 5d fc 17 40 aa 2d 4c 77 62 ba 0d 40
       5.996452088619021 3.716008121502189
0007f0 2e 99 b2 ef 5d fc 17 40 2e 99 b2 ef 5d fc 17 40
       5.996452088619021 5.996452088619021

indices i4 [54516]
000000 50 3e 00 00 4d 3e 00 00 4c 3e 00 00 48 3e 00 00
       15952 15949 15948 15944
000010 43 3e 00 00 42 3e 00 00 41 3e 00 00 40 3e 00 00
       15939 15938 15937 15936
000020 3f 3e 00 00 3d 3e 00 00 3b 3e 00 00 3a 3e 00 00
       15935 15933 15931 15930
000030 35 3e 00 00 34 3e 00 00 2b 3e 00 00 26 3e 00 00
       15925 15924 15915 15910
000040 25 3e 00 00 24 3e 00 00 22 3e 00 00 20 3e 00 00
       15909 15908 15906 15904
000050 1e 3e 00 00 1a 3e 00 00 19 3e 00 00 17 3e 00 00
       15902 15898 15897 15895
000060 16 3e 00 00 15 3e 00 00 13 3e 00 00 12 3e 00 00
       15894 15893 15891 15890
000070 10 3e 00 00 0f 3e 00 00 0d 3e 00 00 0b 3e 00 00
       15888 15887 15885 15883
000080 0a 3e 00 00 09 3e 00 00 06 3e 00 00 05 3e 00 00
       15882 15881 15878 15877
000090 04 3e 00 00 03 3e 00 00 02 3e 00 00 01 3e 00 00
       15876 15875 15874 15873
0000a0 00 3e 00 00 ff 3d 00 00 fe 3d 00 00 fb 3d 00 00
       15872 15871 15870 15867
0000b0 fa 3d 00 00 f9 3d 00 00 f7 3d 00 00 f6 3d 00 00
       15866 15865 15863 15862
0000c0 f5 3d 00 00 f4 3d 00 00 f3 3d 00 00 ef 3d 00 00
       15861 15860 15859 15855
0000d0 ee 3d 00 00 ec 3d 00 00 eb 3d 00 00 ea 3d 00 00
       15854 15852 15851 15850
0000e0 e8 3d 00 00 e7 3d 00 00 e5 3d 00 00 e2 3d 00 00
       15848 15847 15845 15842
0000f0 e0 3d 00 00 df 3d 00 00 dd 3d 00 00 da 3d 00 00
       15840 15839 15837 15834
000100 d8 3d 00 00 d7 3d 00 00 d6 3d 00 00 d4 3d 00 00
       15832 15831 15830 15828
000110 d3 3d 00 00 d2 3d 00 00 cd 3d 00 00 cb 3d 00 00
       15827 15826 15821 15819
000120 ca 3d 00 00 c9 3d 00 00 c6 3d 00 00 c5 3d 00 00
       15818 15817 15814 15813
000130 c4 3d 00 00 bf 3d 00 00 bc 3d 00 00 ba 3d 00 00
       15812 15807 15804 15802
000140 b9 3d 00 00 b6 3d 00 00 b5 3d 00 00 b4 3d 00 00
       15801 15798 15797 15796
000150 b2 3d 00 00 b1 3d 00 00 b0 3d 00 00 af 3d 00 00
       15794 15793 15792 15791
000160 ae 3d 00 00 ad 3d 00 00 ac 3d 00 00 ab 3d 00 00
       15790 15789 15788 15787
000170 aa 3d 00 00 a8 3d 00 00 a5 3d 00 00 a4 3d 00 00
       15786 15784 15781 15780
000180 a3 3d 00 00 a2 3d 00 00 9d 3d 00 00 9a 3d 00 00
       15779 15778 15773 15770
000190 99 3d 00 00 96 3d 00 00 95 3d 00 00 94 3d 00 00
       15769 15766 15765 15764
0001a0 93 3d 00 00 91 3d 00 00 90 3d 00 00 8f 3d 00 00
       15763 15761 15760 15759
0001b0 8d 3d 00 00 8c 3d 00 00 88 3d 00 00 87 3d 00 00
       15757 15756 15752 15751
0001c0 86 3d 00 00 83 3d 00 00 82 3d 00 00 7d 3d 00 00
       15750 15747 15746 15741
0001d0 7c 3d 00 00 7b 3d 00 00 7a 3d 00 00 79 3d 00 00
       15740 15739 15738 15737
0001e0 78 3d 00 00 76 3d 00 00 74 3d 00 00 73 3d 00 00
       15736 15734 15732 15731
0001f0 70 3d 00 00 6e 3d 00 00 6c 3d 00 00 6b 3d 00 00
       15728 15726 15724 15723
000200 6a 3d 00 00 69 3d 00 00 68 3d 00 00 66 3d 00 00
       15722 15721 15720 15718
000210 64 3d 00 00 63 3d 00 00 62 3d 00 00 61 3d 00 00
       15716 15715 15714 15713
000220 60 3d 00 00 5f 3d 00 00 5e 3d 00 00 5d 3d 00 00
       15712 15711 15710 15709
000230 5c 3d 00 00 5b 3d 00 00 5a 3d 00 00 59 3d 00 00
       15708 15707 15706 15705
000240 58 3d 00 00 56 3d 00 00 53 3d 00 00 52 3d 00 00
       15704 15702 15699 15698
000250 51 3d 00 00 50 3d 00 00 4f 3d 00 00 4c 3d 00 00
       15697 15696 15695 15692
000260 4a 3d 00 00 49 3d 00 00 46 3d 00 00 44 3d 00 00
       15690 15689 15686 15684
000270 43 3d 00 00 42 3d 00 00 41 3d 00 00 3e 3d 00 00
       15683 15682 15681 15678
000280 3d 3d 00 00 3c 3d 00 00 3b 3d 00 00 39 3d 00 00
       15677 15676 15675 15673
000290 33 3d 00 00 31 3d 00 00 30 3d 00 00 2e 3d 00 00
       15667 15665 15664 15662
0002a0 2d 3d 00 00 2b 3d 00 00 29 3d 00 00 28 3d 00 00
       15661 15659 15657 15656
0002b0 25 3d 00 00 24 3d 00 00 23 3d 00 00 22 3d 00 00
       15653 15652 15651 15650
0002c0 20 3d 00 00 1f 3d 00 00 1e 3d 00 00 1d 3d 00 00
       15648 15647 15646 15645
0002d0 1c 3d 00 00 1b 3d 00 00 1a 3d 00 00 19 3d 00 00
       15644 15643 15642 15641
0002e0 17 3d 00 00 15 3d 00 00 14 3d 00 00 13 3d 00 00
       15639 15637 15636 15635
0002f0 11 3d 00 00 10 3d 00 00 0d 3d 00 00 0b 3d 00 00
       15633 15632 15629 15627
000300 06 3d 00 00 04 3d 00 00 03 3d 00 00 02 3d 00 00
       15622 15620 15619 15618
000310 01 3d 00 00 ff 3c 00 00 fe 3c 00 00 fd 3c 00 00
       15617 15615 15614 15613
000320 fb 3c 00 00 f8 3c 00 00 f7 3c 00 00 f6 3c 00 00
       15611 15608 15607 15606
000330 f3 3c 00 00 f1 3c 00 00 f0 3c 00 00 ef 3c 00 00
       15603 15601 15600 15599
000340 eb 3c 00 00 e9 3c 00 00 e8 3c 00 00 e5 3c 00 00
       15595 15593 15592 15589
000350 df 3c 00 00 db 3c 00 00 d9 3c 00 00 d7 3c 00 00
       15583 15579 15577 15575
000360 d6 3c 00 00 d5 3c 00 00 d4 3c 00 00 d2 3c 00 00
       15574 15573 15572 15570
000370 cf 3c 00 00 ce 3c 00 00 cc 3c 00 00 cb 3c 00 00
       15567 15566 15564 15563
000380 c9 3c 00 00 c7 3c 00 00 c6 3c 00 00 c5 3c 00 00
       15561 15559 15558 15557
000390 c2 3c 00 00 c1 3c 00 00 bf 3c 00 00 be 3c 00 00
       15554 15553 15551 15550
0003a0 bc 3c 00 00 ba 3c 00 00 b9 3c 00 00 b7 3c 00 00
       15548 15546 15545 15543
0003b0 b6 3c 00 00 b5 3c 00 00 b4 3c 00 00 b3 3c 00 00
       15542 15541 15540 15539
0003c0 b2 3c 00 00 ae 3c 00 00 ad 3c 00 00 ac 3c 00 00
       15538 15534 15533 15532
0003d0 aa 3c 00 00 a9 3c 00 00 a6 3c 00 00 a4 3c 00 00
       15530 15529 15526 15524
0003e0 a3 3c 00 00 a1 3c 00 00 9a 3c 00 00 98 3c 00 00
       15523 15521 15514 15512
0003f0 97 3c 00 00 96 3c 00 00 95 3c 00 00 91 3c 00 00
       15511 15510 15509 15505

indptr i4 [357]
000000 00 00 00 00 93 25 00 00 07 28 00 00 b2 2a 00 00
       0 9619 10247 10930
000010 f2 2c 00 00 a8 2e 00 00 44 31 00 00 ac 33 00 00
       11506 11944 12612 13228
000020 13 36 00 00 7f 38 00 00 9a 39 00 00 c9 3b 00 00
       13843 14463 14746 15305
000030 b8 3d 00 00 39 40 00 00 01 42 00 00 d8 43 00 00
       15800 16441 16897 17368
000040 90 45 00 00 0c 47 00 00 eb 48 00 00 f7 4a 00 00
       17808 18188 18667 19191
000050 93 4c 00 00 10 4e 00 00 74 4f 00 00 4d 51 00 00
       19603 19984 20340 20813
000060 7c 52 00 00 18 54 00 00 ae 55 00 00 ca 55 00 00
       21116 21528 21934 21962
000070 ed 56 00 00 4f 58 00 00 8a 59 00 00 0d 5a 00 00
       22253 22607 22922 23053
000080 7c 5b 00 00 9b 5c 00 00 ec 5d 00 00 3b 5f 00 00
       23420 23707 24044 24379
000090 68 60 00 00 39 61 00 00 48 62 00 00 59 63 00 00
       24680 24889 25160 25433
0000a0 3e 64 00 00 7a 65 00 00 8d 66 00 00 6d 67 00 00
       25662 25978 26253 26477
0000b0 9b 68 00 00 60 69 00 00 63 6a 00 00 82 6b 00 00
       26779 26976 27235 27522
0000c0 bf 6c 00 00 97 6d 00 00 8b 6e 00 00 58 6f 00 00
       27839 28055 28299 28504
0000d0 3e 70 00 00 3e 71 00 00 30 72 00 00 39 73 00 00
       28734 28990 29232 29497
0000e0 89 73 00 00 6c 74 00 00 7b 75 00 00 62 76 00 00
       29577 29804 30075 30306
0000f0 22 77 00 00 18 78 00 00 fc 78 00 00 e7 79 00 00
       30498 30744 30972 31207
000100 e6 7a 00 00 cb 7b 00 00 c6 7c 00 00 99 7d 00 00
       31462 31691 31942 32153
000110 9d 7e 00 00 50 7f 00 00 fe 7f 00 00 e3 80 00 00
       32413 32592 32766 32995
000120 14 81 00 00 a9 81 00 00 51 82 00 00 e0 82 00 00
       33044 33193 33361 33504
000130 66 83 00 00 2a 84 00 00 f8 84 00 00 98 85 00 00
       33638 33834 34040 34200
000140 9f 85 00 00 41 86 00 00 8c 86 00 00 23 87 00 00
       34207 34369 34444 34595
000150 cb 87 00 00 68 88 00 00 18 89 00 00 bf 89 00 00
       34763 34920 35096 35263
000160 89 8a 00 00 10 8b 00 00 4d 8b 00 00 e4 8b 00 00
       35465 35600 35661 35812
000170 f9 8b 00 00 b1 8c 00 00 4c 8d 00 00 e3 8d 00 00
       35833 36017 36172 36323
000180 75 8e 00 00 8d 8e 00 00 54 8f 00 00 e4 8f 00 00
       36469 36493 36692 36836
000190 6c 90 00 00 17 91 00 00 ab 91 00 00 44 92 00 00
       36972 37143 37291 37444
0001a0 db 92 00 00 e5 92 00 00 ed 92 00 00 65 93 00 00
       37595 37605 37613 37733
0001b0 0c 94 00 00 ad 94 00 00 d6 94 00 00 6d 95 00 00
       37900 38061 38102 38253
0001c0 ec 95 00 00 5f 96 00 00 fe 96 00 00 8d 97 00 00
       38380 38495 38654 38797
0001d0 b9 97 00 00 6d 98 00 00 f2 98 00 00 94 99 00 00
       38841 39021 39154 39316
0001e0 bc 99 00 00 2d 9a 00 00 b3 9a 00 00 46 9b 00 00
       39356 39469 39603 39750
0001f0 97 9b 00 00 9d 9b 00 00 b6 9b 00 00 bf 9b 00 00
       39831 39837 39862 39871
000200 45 9c 00 00 dd 9c 00 00 e7 9c 00 00 0f 9d 00 00
       40005 40157 40167 40207
000210 b8 9d 00 00 fa 9d 00 00 80 9e 00 00 1c 9f 00 00
       40376 40442 40576 40732
000220 47 9f 00 00 e0 9f 00 00 eb 9f 00 00 f3 9f 00 00
       40775 40928 40939 40947
000230 84 a0 00 00 05 a1 00 00 22 a1 00 00 a7 a1 00 00
       41092 41221 41250 41383
000240 bb a1 00 00 52 a2 00 00 be a2 00 00 d0 a2 00 00
       41403 41554 41662 41680
000250 1c a3 00 00 2f a3 00 00 b0 a3 00 00 27 a4 00 00
       41756 41775 41904 42023
000260 a2 a4 00 00 ba a4 00 00 37 a5 00 00 94 a5 00 00
       42146 42170 42295 42388
000270 01 a6 00 00 56 a6 00 00 dd a6 00 00 22 a7 00 00
       42497 42582 42717 42786
000280 73 a7 00 00 e3 a7 00 00 fd a7 00 00 71 a8 00 00
       42867 42979 43005 43121
000290 7f a8 00 00 84 a8 00 00 fc a8 00 00 05 a9 00 00
       43135 43140 43260 43269
0002a0 3c a9 00 00 44 a9 00 00 59 a9 00 00 cb a9 00 00
       43324 43332 43353 43467
0002b0 df a9 00 00 2e aa 00 00 34 aa 00 00 6f aa 00 00
       43487 43566 43572 43631
0002c0 ad aa 00 00 b7 aa 00 00 c0 aa 00 00 31 ab 00 00
       43693 43703 43712 43825
0002d0 83 ab 00 00 87 ab 00 00 af ab 00 00 fb ab 00 00
       43907 43911 43951 44027
0002e0 3d ac 00 00 bb ac 00 00 0d ad 00 00 54 ad 00 00
       44093 44219 44301 44372
0002f0 ba ad 00 00 3d ae 00 00 6e ae 00 00 f9 ae 00 00
       44474 44605 44654 44793
000300 2a af 00 00 7f af 00 00 c9 af 00 00 2e b0 00 00
       44842 44927 45001 45102
000310 94 b0 00 00 f4 b0 00 00 69 b1 00 00 a0 b1 00 00
       45204 45300 45417 45472
000320 e3 b1 00 00 00 b2 00 00 6a b2 00 00 c8 b2 00 00
       45539 45568 45674 45768
000330 1e b3 00 00 74 b3 00 00 bd b3 00 00 21 b4 00 00
       45854 45940 46013 46113
000340 7e b4 00 00 f5 b4 00 00 32 b5 00 00 a3 b5 00 00
       46206 46325 46386 46499
000350 02 b6 00 00 66 b6 00 00 b7 b6 00 00 de b6 00 00
       46594 46694 46775 46814
000360 2b b7 00 00 91 b7 00 00 f6 b7 00 00 5f b8 00 00
       46891 46993 47094 47199
000370 62 b8 00 00 8e b8 00 00 de b8 00 00 40 b9 00 00
       47202 47246 47326 47424
000380 a5 b9 00 00 e0 b9 00 00 0b ba 00 00 5a ba 00 00
       47525 47584 47627 47706
000390 5d ba 00 00 b7 ba 00 00 16 bb 00 00 5f bb 00 00
       47709 47799 47894 47967
0003a0 bc bb 00 00 05 bc 00 00 6c bc 00 00 b3 bc 00 00
       48060 48133 48236 48307
0003b0 de bc 00 00 30 bd 00 00 76 bd 00 00 c8 bd 00 00
       48350 48432 48502 48584
0003c0 2a be 00 00 58 be 00 00 a6 be 00 00 f4 be 00 00
       48682 48728 48806 48884
0003d0 29 bf 00 00 8e bf 00 00 e6 bf 00 00 36 c0 00 00
       48937 49038 49126 49206
0003e0 80 c0 00 00 d2 c0 00 00 e9 c0 00 00 1b c1 00 00
       49280 49362 49385 49435
0003f0 4b c1 00 00 9f c1 00 00 f6 c1 00 00 2e c2 00 00
       49483 49567 49654 49710
