models/combined_dataset_bertopic_model/topic_embeddings.safetensors (safetensors, 546904 bytes, 1 tensors)

topic_embeddings f4 [356, 384]
00000000: e705 36bd b7aa 94bc 5809 853c 53e8 adbc
00000010: 1c3b 053d 15d4 1d3b 435a 073c baf9 533b
00000020: 5038 b2bc ffff 5e3c 29e2 72bb fbdb 9e3c
00000030: a495 613c 439c f1bc 22ea 293b fdb5 ae3c
00000040: a08a a13c 4118 20bd 60cf 9bbb 9e0f 47bc
00000050: f5db 13bd e872 0cbc 24a6 a43c d22f f6b9
00000060: 329b 913c 3f13 233c 2c20 3cbc bd68 bebb
00000070: 753c 90bc 316c 00bc a92e 543b 8530 fe3c
00000080: 20ce eb3c f1ae d63c 3879 be3c 59d9 183c
00000090: 8d2e 32bb 6469 91ba 76fb bfbb 7ec2 93bc
000000a0: aed8 4c3b d245 87bd 4c13 eebb 568f d7bb
000000b0: 88c7 853c 92a3 62ba e051 c9bc dd44 a7bc
000000c0: 4577 cb3c 4336 e13c a1cc 91bd d162 6bbd
000000d0: 7c94 5e3c 3a15 f7bc e248 52bb ed9d 413c
000000e0: 291a 793c 9c54 513c da1c f03c 0f0f 253c
000000f0: d97d 053d a13f 07bd 13ca 00bc 8bc1 2a3d
00000100: 88fc 083d 9ea1 c83c 6899 8ebb ab84 433d
00000110: e5e0 20bd 86fb b0bc ccc7 c13c b7ed 47bc
00000120: f048 d2bc 532b 393c 7d16 283c 440c 6e3c
00000130: 6460 85b9 9861 8bb7 37bf 453d 3d64 19bd
00000140: 6f49 963a 3016 1ebd 1d37 0ebd cf68 b53c
00000150: 9430 febc f87f a03b 3885 5f3c 7ea3 a7bc
00000160: dcf1 013d e1ea ae3b d892 fbbc 716a 7dbc
00000170: ddc1 253d 58e8 733c 24a2 ac3b 3e18 373c
00000180: 7426 38bd 82db 77bd f3d3 b0bc 7def ba3c
00000190: 2992 b2bb 7d25 d93c 2881 e13b 1913 cebc
000001a0: 8dbf 54bc 6b9e cdbc 9274 763c a3de ac3c
000001b0: e3ad 443d 7819 ec3b b174 54bc d707 143b
000001c0: d5fd bf3c 0e39 92bc cfa3 183d 2203 133c
000001d0: 87e4 9dbc f205 053d d6da 083d 8f0f 593c
000001e0: 0571 013d 950a 3a3c 844c 92bc fc3a 78bc
000001f0: b0e8 48bc de1e c1bc 125b f9bc e9ca 2389
00000200: ca37 93ba 9f90 f13c fd1c 093d e755 853c
00000210: 62a3 443d ae1e a5bc 14e4 95bc c1b5 513c
00000220: f53f 72bd c53c b43c b1d4 2bbd 16a6 d43c
00000230: 2186 85bc 8ed6 283d 4181 063c c351 66bd
00000240: ef32 d0bc b853 8d3c 0914 2a3c eab1 d2bc
00000250: 78f1 a03c d334 1abd 3a58 303b 0318 ebbc
00000260: be3c aa3c d690 00bc e51f 2f3c 34ec 4d3b
00000270: 28eb 9a3d 3000 943c 8cd7 51bd 7015 893c
00000280: 7fa1 66bc c386 54bc 40bb ce3b e060 e13c
00000290: f47d 0cbd 7bcf 0fbd 0975 28bc a0ef 113d
000002a0: 2c67 f7bc a9d8 833c 3ea2 e3bc b232 c3bc
000002b0: 2b92 27bc 5bb0 cf3c 3abc 1f3c a1b5 d8bc
000002c0: 8687 a33c d593 a33c 2885 0fbd de06 023d
000002d0: 2262 aaba 8131 ddbc ac16 0c3d faa4 55bc
000002e0: 0d8b a4b9 7df5 8fbb 262b 923c bf77 a2bc
000002f0: 6e30 923c 6f78 4a3b 9979 acbc c819 893c
00000300: a10e d0bc 0d3b 433d c835 9c3c efb1 1fbc
00000310: 8bf4 d03a bb9c 3d3d 770a d1bb c55a c93b
00000320: 1602 6dbc c730 9fbc 52bd 09bd d2f0 23bc
00000330: 9fa3 16bd d52e e3bb e55b 9b3b 9b33 3abc
00000340: 3f49 9dbc d3b4 8fbc a8b4 8abb ed98 9c3c
00000350: cb38 e03c 8ab1 233c de8b 9b3b 28b5 f2bc
00000360: b9e7 cabc debb df3c 2fcc 2abd 2d62 7fbc
00000370: e894 37bc 51d9 1a3d 37bf 33bd 840e 4207
00000380: fc2e 63bd aaf0 6ebb 2e59 7cbc 5b76 d13c
00000390: 6de0 523c 34e2 1bbc e002 b9bb 7744 4e3c
000003a0: a4e8 703c 89b4 213d bb36 afbb 58b6 6c3a
000003b0: bd5b 9a3b 6c9a 06bc 63ab 84ba 0ab9 e1bc
000003c0: 234e d33c 2b74 69bd 1535 0fbb 7ef0 bb3b
000003d0: b8ea f23c bec0 743c 2cf4 01bd 87d9 cb3c
000003e0: 33ed 953c d5b3 a83c 6862 273c 42d4 d23c
000003f0: 6678 68bc 6caa cdbb ba3a 4a3b 75d4 09ba
-0.044439223 -0.01814781 0.016239807 -0.021228945 0.032527074 0.002408271 0.008261266 0.0032344894
-0.021755368 0.013610839 -0.0037061071 0.019392004 0.013768587 -0.029493457 0.0025926908 0.021327013
0.019719422 -0.03908563 -0.0047549456 -0.0121497195 -0.03609844 -0.008572318 0.020098753 -0.00046956405
0.017774198 0.009953319 -0.01148228 -0.0058108256 -0.017606953 -0.007838295 0.0032376444 0.031028995
0.028784811 0.026206465 0.023251161 0.0093291635 -0.002718839 -0.0011094031 -0.005858834 -0.018037077
0.003125708 -0.06605114 -0.007265484 -0.0065783663 0.016330495 -0.00086455897 -0.024575174 -0.020418579
0.024837146 0.027491694 -0.07119108 -0.057467286 0.013585206 -0.030161489 -0.0032086899 0.011817438
0.015203991 0.01277652 0.029310632 0.010074391 0.03259072 -0.033019666 -0.007860678 0.041688483
0.033443958 0.024491128 -0.0043517835 0.047733944 -0.039276976 -0.02160431 0.02365484 -0.012202672
-0.025669545 0.011301833 0.010259268 0.014529292 -0.00025439553 -1.6615537e-05 0.04827806 -0.03744911
0.0011465977 -0.03859538 -0.03472053 0.022144703 -0.031029023 0.0048980676 0.013642602 -0.020463701
0.031724796 0.0053380583 -0.030709669 -0.015467272 0.040468086 0.014886938 0.005268352 0.011175213
-0.044958547 -0.060512073 -0.02158544 0.022819275 -0.0054495526 0.026507134 0.0068818517 -0.02515559
-0.012985122 -0.025099954 0.015042441 0.021102255 0.048017394 0.0072051845 -0.0129672745 0.002258768
0.023436466 -0.017849471 0.037265595 0.008972915 -0.01927401 0.032476373 0.033411823 0.013248338
0.031601924 0.011355062 -0.017858751 -0.015150782 -0.012262508 -0.023574289 -0.030438934 -1.971582e-33
-0.0011231836 0.029487906 0.03347491 0.016276313 0.048007376 -0.02015623 -0.018297233 0.012799681
-0.059143025 0.022001633 -0.041950885 0.025958102 -0.01629931 0.04122024 0.0082095275 -0.056230318
-0.025414912 0.017251834 0.010380753 -0.025719602 0.019646391 -0.037648033 0.0026908056 -0.028697973
0.020780917 -0.007847032 0.010688757 0.0031421306 0.07564384 0.018066496 -0.051230952 0.016733855
-0.01407659 -0.012971583 0.006308943 0.027512014 -0.034299806 -0.03510998 -0.01028181 0.035628915
-0.030200563 0.016094523 -0.027787324 -0.023827884 -0.01022772 0.025352648 0.009749467 -0.026453795
0.019962084 0.019967953 -0.035039097 0.03174483 -0.0012999217 -0.027001144 0.03420131 -0.013039822
-0.00031384118 -0.004393278 0.01784284 -0.01983249 0.017845359 0.0030894538 -0.021054076 0.016735926
-0.0253976 0.047663737 0.019068614 -0.0097470125 0.001594202 0.046292048 -0.0063794213 0.006144854
-0.014465829 -0.019432439 -0.033627816 -0.0100061465 -0.036777135 -0.006933073 0.0047411793 -0.011364843
-0.019199966 -0.017542278 -0.0042329617 0.01911589 0.027370831 0.009991059 0.004746898 -0.029627398
-0.024768697 0.027311262 -0.04169863 -0.015587372 -0.011204936 0.037804905 -0.04388353 1.4599204e-34
-0.05546473 -0.0036459365 -0.0154021215 0.025569132 0.01287089 -0.00951438 -0.0056460947 0.0125895655
0.014703903 0.039478812 -0.0053471006 0.0009029857 0.004710643 -0.008215528 -0.0010121878 -0.027554054
0.025794094 -0.056995552 -0.0021851708 0.005735456 0.029652938 0.014938531 -0.031727 0.024883999
0.018301582 0.020593563 0.010216333 0.025735978 -0.0141888615 -0.0062764194 0.0030857758 -0.0005257794
